mountain_car_model_64_64.pth (torch, 10930 bytes, 6 tensors)

0.weight f4 [36, 2]
0	0x3e3edf30	0.18639827
1	0x3fed1d2e	1.852453
2	0x3e871689	0.2638438
3	0xc0da35db	-6.819074
4	0xbb4f449b	-0.0031626585
5	0xc04f6f6f	-3.2411764
6	0x3ef40314	0.47658598
7	0x3f136346	0.57573354
8	0x3f61af87	0.8815846
9	0xc09c69e8	-4.887928
10	0xbe5ad35c	-0.2136969
11	0xbe0e541c	-0.13899273
12	0x3f9903cc	1.1954284
13	0xc1216274	-10.086536
14	0xbe953d9f	-0.29148576
15	0x3cd69440	0.026193738
16	0x3e8f206a	0.27954417
17	0x3ed93b42	0.42428023
18	0xbe8bbc04	-0.27291882
19	0xc09da26e	-4.926078
20	0x3eef8334	0.46779788
21	0x3fbf4b58	1.4944868
22	0xbe1503e8	-0.14552271
23	0x3f07757b	0.52913636
24	0x3f80af18	1.0053434
25	0xc0591edb	-3.3925083
26	0x3e5c1a5d	0.21494432
27	0xc1916283	-18.173101
28	0x3fa9ba9c	1.3260074
29	0xbfd9732f	-1.6988276
30	0xbefcf2e1	-0.49404052
31	0x40dbabeb	6.864736
32	0xbe49e2f0	-0.19715476
33	0xc11a0dd9	-9.628381
34	0x3fbb2359	1.4620162
35	0x412fa40d	10.977551
36	0xbe89b279	-0.26893976
37	0xc0fc8ab8	-7.8919334
38	0x3f0e0884	0.55481744
39	0xbf93d2b3	-1.1548675
40	0x3f3bd424	0.73370576
41	0xbfb5c88e	-1.420183
42	0x3f5b557f	0.8567733
43	0x3ff55045	1.9165121
44	0xbf02cc68	-0.5109315
45	0xbebaa44c	-0.36453474
46	0x3ee46c86	0.44614047
47	0x3ed4455e	0.41459173
48	0x3f146229	0.5796228
49	0xc0abc119	-5.3673215
50	0x3f855141	1.0415422
51	0xc0d9c1f0	-6.804924
52	0x3e8fafcc	0.2806381
53	0x3dc3a2a8	0.095525086
54	0x3ef2bdf2	0.47410542
55	0xbed52b52	-0.41634613
56	0x3f1c2725	0.6099723
57	0xbedaf13f	-0.4276218
58	0xbdd6de07	-0.10491567
59	0xc0aa8f98	-5.3300285
60	0x3ea3d00e	0.3199467
61	0x3e9198fe	0.28437036
62	0xbfaed18e	-1.3657701
63	0xbfbc248a	-1.4698651
64	0x3ec6bfc6	0.38818187
65	0xbdb6c840	-0.089249134
66	0x3bd377a2	0.0064534703
67	0x3e147d3c	0.14500898
68	0x3ee099ae	0.43867248
69	0x3f2dd04f	0.6789598
70	0x3fe58b44	1.7933125
71	0xc07596d9	-3.837332

0.bias f4 [36]
0	0x3f8baca7	1.0912064
1	0x3ebabdca	0.36472923
2	0x3f5c0bc2	0.8595544
3	0x3f87c74c	1.0607696
4	0x3f75a0e5	0.9594863
5	0xbf1d6949	-0.6148878
6	0x3f817b30	1.0115719
7	0xbee27e4b	-0.4423698
8	0xbf28b3a4	-0.6589911
9	0x3f364b90	0.7120905
10	0x3fa0d7e4	1.2565885
11	0xbf349264	-0.70535874
12	0x3f6ba71c	0.92051864
13	0xbd71a6c5	-0.058996934
14	0x3f211af5	0.6293176
15	0x3ed435de	0.41447347
16	0x3eb25273	0.3482853
17	0x3f24d070	0.6438055
18	0x3ea5c5dc	0.32377517
19	0x3f7c152e	0.9846982
20	0x3f4f44c7	0.8096432
21	0x3f90dcb8	1.1317358
22	0xbf332945	-0.6998485
23	0xbeeada76	-0.45869797
24	0x3ec737db	0.38909802
25	0x3f45cc0d	0.7726448
26	0xbf0d35d6	-0.5516027
27	0xbed0780b	-0.40716586
28	0x3f9748ba	1.1819069
29	0x3ef367f7	0.47540256
30	0xbe9ddba3	-0.30831632
31	0xbf92b691	-1.1461965
32	0xbf2c704d	-0.6735886
33	0xbd03b22e	-0.032152347
34	0xbf085177	-0.53249305
35	0x3f4746ac	0.7784221

2.weight f4 [48, 36]
0	0xbd27a7dc	-0.040931568
1	0xbbdc3d42	-0.0067211697
2	0xbdccd1ac	-0.10000929
3	0x3d8980a0	0.067139864
4	0xbe085b93	-0.13316183
5	0x3e1adb9b	0.15122835
6	0x3de9ea6a	0.11421664
7	0xbe0feb98	-0.14054716
8	0xbd29e7b0	-0.04148072
9	0xbcc68094	-0.024231233
10	0xbbf3c8ff	-0.007439732
11	0x3d21e934	0.03952904
12	0x3d09eb16	0.03367146
13	0xbcb265da	-0.021777082
14	0xbde665e9	-0.112499066
15	0x3d413b05	0.047175426
16	0xbe443058	-0.19159067
17	0xbdca4f80	-0.09878445
18	0xbd966ea6	-0.07345323
19	0xbde74d79	-0.112940736
20	0xbdb8714e	-0.09005986
21	0xbe2c63c9	-0.1683494
22	0xbd1136ac	-0.03545253
23	0x3d11eca4	0.03562607
24	0xbe0fb06c	-0.14032143
25	0xbd2512c2	-0.040301092
26	0x3df45802	0.11930849
27	0xbc8c5b48	-0.01713337
28	0xbcde3556	-0.027125042
29	0xbd3cebc0	-0.046123266
30	0x3d0a28b4	0.033730224
31	0x3d980aae	0.07423912
32	0x3e21a9d1	0.15787436
33	0x3dd8c40a	0.105842665
34	0x3e220883	0.1582356
35	0xbc457c80	-0.012053609
36	0xbe0c49ca	-0.13700023
37	0x3f87b9b4	1.0603547
38	0x3e812a9e	0.25227827
39	0xbee71580	-0.4513359
40	0xbee63327	-0.449609
41	0xbe02c8ac	-0.12771863
42	0x3f03c487	0.5147175
43	0xbe100b48	-0.14066803
44	0xbd0a784c	-0.03380613
45	0x3eddeab9	0.43343142
46	0x3d46a653	0.048498463
47	0xbe2498ac	-0.16073865
48	0xbf43b849	-0.7645307
49	0x3ece8cdb	0.4034184
50	0x3fd6d0bc	1.6782451
51	0x3eb9ed74	0.36313975
52	0x3f843dde	1.033138
53	0xc0cd4951	-6.4151998
54	0x3f0cb26a	0.5495974
55	0xbea3463e	-0.31889528
56	0xbf6cfae2	-0.92570317
57	0xbe596c2a	-0.21232668
58	0xbd9b0f26	-0.07571249
59	0x3d80947a	0.0627832
60	0x400bce69	2.1844733
61	0xc070fe0d	-3.765506
62	0x3e16166d	0.14656992
63	0xbd8b3a26	-0.067982
64	0xbedc8849	-0.43072727
65	0x3f074212	0.5283519
66	0xbe1a051f	-0.15041016
67	0xbf667a2d	-0.90030175
68	0xbc9d8d48	-0.019232407
69	0xbdc3a288	-0.09552485
70	0x3e087963	0.13327555
71	0xc0419183	-3.0245063
72	0xbd113d15	-0.035458643
73	0xbdb4d02f	-0.0882877
74	0x3d861fcd	0.06549034
75	0xbbe6f282	-0.007047952
76	0x3cd832f6	0.026391488
77	0x3d711700	0.058859825
78	0xbdbf2ded	-0.093349315
79	0xbd0f918c	-0.035050914
80	0xbe0ca4ab	-0.13734691
81	0x3d16c14a	0.03680543
82	0x3da18376	0.07886402
83	0x3de98c7a	0.11403747
84	0xbe2f5125	-0.17120798
85	0x3bf39320	0.00743331
86	0xbe2e5b8b	-0.17027108
87	0xbdfbf0dc	-0.123018
88	0xbe1a3785	-0.15060242
89	0x3d694c44	0.0569575
90	0xbe1c629b	-0.1527199
91	0xbd6ba76c	-0.057532713
92	0xbd3eaae8	-0.046549708
93	0x3d5dbd19	0.054135416
94	0xbe0102a7	-0.12598668
95	0xbdea545b	-0.11441871
96	0xbe19dab3	-0.15024833
97	0x3dae307b	0.08505341
98	0xbd756510	-0.059910834
99	0x3e0ff495	0.14058144
100	0x3bdd929d	0.0067618624
101	0xbd04a05c	-0.032379493
102	0xbaa29e00	-0.0012406707
103	0xbdaff4b6	-0.08591597
104	0x3cab4da8	0.020911053
105	0xbd1be220	-0.038057446
106	0xba997e80	-0.0011710674
107	0x3cae3500	0.021265507
108	0xbee248be	-0.44196123
109	0x3efe21c8	0.49635148
110	0x3efb6012	0.49096733
111	0xbd353364	-0.044238463
112	0x3fd3e50c	1.6554275
113	0x3e28d481	0.16487314
114	0x3f82d266	1.0220459
115	0x3b9aa080	0.00471884
116	0xbe13e6c4	-0.14443499
117	0x3f22fa61	0.636633
118	0xbebbcd3d	-0.36680022
119	0xbd41c8e0	-0.04731071
120	0x3f988e1f	1.1918372
121	0xc0744512	-3.8167157
122	0x3f8e7bc8	1.1131525
123	0x3e52a3db	0.20570318
124	0x3f8dbf76	1.1074054
125	0xc0700b11	-3.7506754
126	0x3f971295	1.1802546
127	0xbe150acb	-0.14554898
128	0x3e9fa120	0.31177616
129	0x3ef5a016	0.47973698
130	0xbd90aa68	-0.070637524
131	0x3d48c9ac	0.049020454
132	0x3f45c1cc	0.77248836
133	0xbfbe0b23	-1.4847149
134	0xbd5bc2e0	-0.053652644
135	0x398be200	0.0002668053
136	0x3e697043	0.2279673
137	0x3ee3140c	0.44351232
138	0x3df6c702	0.120496765
139	0xc075b88f	-3.8393896
140	0x3b168ac0	0.0022970885
141	0xbd449b95	-0.047999937
142	0xbdb3c563	-0.08777883
143	0xbf43aecd	-0.764386
144	0x3dd9335a	0.10605498
145	0xbda4d45c	-0.08048317
146	0xbe05d9c4	-0.13071352
147	0xbdbf4af3	-0.09340467
148	0xbe49ad88	-0.19695103
149	0x3d9a1368	0.07523233
150	0xbda3ee16	-0.08004396
151	0xbde3c916	-0.111223385
152	0xbdc4a483	-0.096016906
153	0x3d83331f	0.06406235
154	0x3d67699e	0.05649721
155	0x3e02fd8b	0.12792031
156	0x3ceb0e51	0.02869335
157	0xbd63fbb0	-0.05565995
158	0xbda0701a	-0.07833882
159	0x3c8f2a76	0.017476302
160	0x3e0c4b3f	0.13700579
161	0x3c5e02a8	0.013550438
162	0xbda18013	-0.07885756
163	0xbde181ed	-0.110111095
164	0xbe41e317	-0.18934284
165	0x3b8b0abc	0.004243223
166	0xbdbf8ce0	-0.09353042
167	0xbe18298b	-0.14859597
168	0x3dea41db	0.11438342
169	0xbdddaa6b	-0.1082352
170	0xbc9b5288	-0.018960252
171	0x3d439460	0.047748923
172	0xbcd8b8a8	-0.026455238
173	0xbe135d2c	-0.14391011
174	0xbe09f41e	-0.1347203
175	0x3dcf04b7	0.10108321
176	0x3cde5440	0.027139783
177	0x3e0d96d9	0.13827075
178	0xbd64db8c	-0.05587344
179	0x3c8dfd75	0.017332772
180	0xbd1c1c10	-0.0381127
181	0xbbf2df20	-0.0074118525
182	0xbdcfe318	-0.101507366
183	0x3d66e0e4	0.056366816
184	0x3d57d600	0.05269432
185	0xbb6151c0	-0.0034381002
186	0xbd198880	-0.037483692
187	0xbdd26876	-0.102738306
188	0x3dec0c1a	0.11525746
189	0xbdfe18c6	-0.12407069
190	0x3d8bd51e	0.06827758
191	0xbd658c90	-0.056042254
192	0xbda4aeb3	-0.08041134
193	0x3cf54680	0.029940844
194	0xbdb14ed8	-0.086576164
195	0x3d1d4a2c	0.038400814
196	0x3d06100c	0.032730147
197	0xbdfd6fb8	-0.12374824
198	0x3ce35378	0.027749762
199	0x3d916242	0.07098819
200	0x3d871c3e	0.06597184
201	0xbcabddc8	-0.020979777
202	0xbe0be912	-0.13663128
203	0xbcd278c0	-0.025692344
204	0x3d6d186c	0.05788462
205	0xbd7916e6	-0.060812853
206	0x3d81904e	0.06326352
207	0x3de350b2	0.11099376
208	0xbdb23a4e	-0.08702527
209	0x3ad76f80	0.0016436428
210	0x3d8d2418	0.0689165
211	0x3c560610	0.013062969
212	0x3c6418c0	0.0139219165
213	0x3caa7ba0	0.020810902
214	0xbe062b52	-0.13102463
215	0x3c569930	0.013098046
216	0x3e1d82ae	0.15381882
217	0x3e4dd964	0.20102459
218	0x3d36ccd6	0.04462894
219	0x3e4a2973	0.19742374
220	0x3fb27cb3	1.3944305
221	0xbda60d3e	-0.081079945
222	0x3e8539b7	0.26020595
223	0xbe12c287	-0.14332019
224	0x3e2a423d	0.1662683
225	0xbdb8b968	-0.090197384
226	0x3d7e18e9	0.062035475
227	0x3d858b4e	0.06520711
228	0x3f7dee89	0.991921
229	0xc097b7f9	-4.7412076
230	0x401511d7	2.3292139
231	0xbe915c83	-0.28390893
232	0xbd650207	-0.055910137
233	0xc00b2b79	-2.1745284
234	0x3d4ffd6f	0.050778802
235	0x3ede808b	0.43457446
236	0x3ebbfe39	0.36717394
237	0x3fb5f465	1.4215208
238	0x3da4eb0a	0.08052643
239	0x3dba12aa	0.09085591
240	0x3e753521	0.23946048
241	0xc00b525f	-2.1769025
242	0xbd6f513c	-0.05842708
243	0x3e0559fd	0.13022609
244	0x3e98bbea	0.29830867
245	0xbde0f8e7	-0.10984974
246	0x3cf28358	0.029603645
247	0xc0e4f63b	-7.1550574
248	0xbd67fd2c	-0.056637928
249	0x3d77dba8	0.060512215
250	0xbdee6953	-0.11641183
251	0xbf24bfa0	-0.64354897
252	0xbeb16e50	-0.34654474
253	0xbe2fc1b6	-0.17163739
254	0xbe815ac9	-0.25264576
255	0xbd525bed	-0.0513572

2.bias f4 [48]
0	0x3dc5efa4	0.096648484
1	0x3e9c5682	0.3053475
2	0xbd312908	-0.04325202
3	0x3eba0578	0.36332297
4	0xbddb94c3	-0.107217334
5	0xbd870798	-0.06593245
6	0xbdb92ee9	-0.090421505
7	0xbe916fb4	-0.28405535
8	0xbe179532	-0.14803007
9	0xbe292fe6	-0.16522178
10	0xbe38dcff	-0.18053053
11	0x3c8582e0	0.016297758
12	0x3e98864a	0.29789954
13	0xbdcc1b40	-0.09966135
14	0xbe594e04	-0.21221167
15	0xbdcac66a	-0.09901126
16	0x3d4ee34a	0.05050973
17	0xbcb77a93	-0.022397315
18	0x3dfd087a	0.123551324
19	0x3f0243ab	0.50884503
20	0x3d3de88e	0.04636436
21	0x3f9958e4	1.1980252
22	0x3f8adb7f	1.0848235
23	0x3e131369	0.14362873
24	0xbde7d468	-0.1131981
25	0x3e007171	0.12543274
26	0x3fa4e4fe	1.2882383
27	0x3e0281eb	0.12744872
28	0xbd9f71a6	-0.077853486
29	0xbdb4dbb8	-0.088309705
30	0x3f8f6e58	1.1205549
31	0x3c40156e	0.011723859
32	0xbb503d12	-0.0031774682
33	0xbcb28f6c	-0.021796905
34	0x3f48a4ad	0.78376275
35	0xbdc399aa	-0.095507935
36	0xbe9c04ba	-0.30472356
37	0x3d25b0bc	0.04045175
38	0xbc4b4df5	-0.012408723
39	0x3e835781	0.25652698
40	0x3c840fb8	0.016120777
41	0xbe220c37	-0.15824972
42	0xbe74e93a	-0.23917094
43	0xbdab2641	-0.08356906
44	0x3daa86a9	0.08326466
45	0xbe3a1f2d	-0.18175955
46	0x3e8f03c4	0.2793256
47	0xbe40ff8e	-0.18847486

4.weight f4 [3, 48]
0	0x3d151b00	0.036402702
1	0x4027f4d5	2.6243184
2	0xba85324c	-0.0010162084
3	0xbf6dab29	-0.92839295
4	0xbdbd5b9c	-0.09245989
5	0xbd97043b	-0.07373854
6	0xbfe975fb	-1.823913
7	0x3e78bfe5	0.24291952
8	0x3e0a7298	0.13520277
9	0xbc32a980	-0.01090467
10	0xbff1d7c3	-1.889397
11	0xbd4351e8	-0.047685534
12	0xbfb13341	-1.3843766
13	0xbb1baeb7	-0.0023755261
14	0xc01c8b3c	-2.4459982
15	0x3d94c208	0.07263571
16	0x3d041570	0.032247007
17	0x3d28e394	0.04123266
18	0xbd6f5644	-0.05843188
19	0x40eeec23	7.4663253
20	0x4065b4c1	3.5891573
21	0xbfd87f06	-1.6913764
22	0xbf86f507	-1.0543526
23	0xbc939970	-0.0180175
24	0xbe0ba518	-0.13637197
25	0x3dc8656c	0.0978497
26	0xbf5e65db	-0.8687417
27	0xbdff8985	-0.12477402
28	0x3de9dfa0	0.11419606
29	0xbd9f0e75	-0.07766429
30	0xbf85d7ae	-1.0456445
31	0x3daefafa	0.08543964
32	0xbf4a7acf	-0.7909364
33	0xbfbc9eac	-1.4735923
34	0xc0322d5c	-2.7840185
35	0x3d6a3516	0.057179533
36	0xc00fccc8	-2.2468739
37	0xbdca1fef	-0.09869372
38	0xbf9a9475	-1.2076555
39	0xbfa212de	-1.2662008
40	0x3c4b5510	0.012410417
41	0x3d9027f4	0.070388705
42	0x3d19910c	0.037491843
43	0x3d9bbd86	0.07604508
44	0x3c309d68	0.010779716
45	0x3b806420	0.003918186
46	0x4000af50	2.0107002
47	0xbd7e7bab	-0.062129658
48	0xbca186b7	-0.019717557
49	0x401c5278	2.4425335
50	0x3da19922	0.07890536
51	0xbfc637d0	-1.5485783
52	0x3d7934d8	0.06084141
53	0x3d7743b8	0.060367316
54	0xbf86eeb6	-1.0541599
55	0xbf8fe8f0	-1.1242962
56	0xbda426e7	-0.080152325
57	0x3b22a180	0.00248155
58	0xbfbd47e7	-1.4787568
59	0xbd3d31a0	-0.046189904
60	0xbfb8c6b5	-1.443564
61	0x3d66aa8c	0.05631499
62	0xbfc68b04	-1.5511174
63	0x3e091cae	0.13389847
64	0x3e0550d4	0.13019115
65	0xbdbc9507	-0.09208112
66	0xb9ee6600	-0.00045470893
67	0x40d1c7b3	6.5556273
68	0x4093781f	4.608413
69	0xbf85540f	-1.0416278
70	0xbf86a3ec	-1.0518775
71	0xbdbb4074	-0.09143153
72	0x3dd9d190	0.10635674
73	0xbd277e4e	-0.040891938
74	0xbf892ec0	-1.0717392
75	0x3dc7efe6	0.09762554
76	0x3e080070	0.13281417
77	0xbbc75060	-0.0060825795
78	0xbf9da3ee	-1.2315652
79	0x3e0770e0	0.13226652
80	0xc008bb30	-2.136425
81	0xc0062700	-2.0961304
82	0xc053ebe8	-3.3112736
83	0xbdb96db1	-0.09054125
84	0xbfe78bba	-1.8089516
85	0xbd311afb	-0.04323862
86	0xbfc1759d	-1.5114018
87	0xbfef0023	-1.8671917
88	0x3d6db5a4	0.058034554
89	0xbde06668	-0.109570324
90	0xbf84db3f	-1.0379409
91	0xbcafd1ed	-0.021462405
92	0x3d2d58d5	0.042321045
93	0x3e0003a2	0.12501386
94	0x401ae34f	2.4201238
95	0xbdd8dd44	-0.10589078
96	0xbde3218a	-0.110903814
97	0x4003888a	2.0552087
98	0x3cc4d4f7	0.02402733
99	0xc01d7941	-2.4605258
100	0x3d3d05b9	0.046148036
101	0xbcafb1b8	-0.021447048
102	0xbee3d6bf	-0.44499776
103	0xc006f55e	-2.108726
104	0x3d1eed78	0.038800687
105	0x3dde198f	0.10844719
106	0xbf3d0f92	-0.73851883
107	0xbd36b1f2	-0.044603296
108	0xbfc77b2f	-1.5584468
109	0xbcb8de68	-0.022566989
110	0xbe23a34a	-0.15980259
111	0x3d6c7912	0.05773265
112	0x3c1e85d0	0.009675458
113	0x3c840bd9	0.01611893
114	0xbd3391d6	-0.043840252
115	0x40b648af	5.6963725
116	0x40b89c91	5.769112
117	0xbf3d5de9	-0.7397142
118	0xbf6f729c	-0.93534255
119	0x3d98dabe	0.07463597
120	0x3d3645df	0.044500228
121	0xbce3252b	-0.027727684
122	0xbf8e0631	-1.109564
123	0x3d01e776	0.03171488
124	0xbd8f3e39	-0.0699429
125	0x3e0a33b2	0.13496283
126	0xbf8aa17b	-1.083053
127	0x3d8e4982	0.06947614
128	0xc02fae82	-2.745026
129	0xc00ac4ae	-2.1682544
130	0xc06c6b7b	-3.69406
131	0xbb66cdc2	-0.0035217856
132	0xbf3828ce	-0.71937263
133	0x3dc71eb6	0.097226545
134	0xc0290eb4	-2.6415224
135	0xbfd56ee0	-1.6674461
136	0xbdfbf112	-0.1230184
137	0xbdb5f557	-0.088846855
138	0xbffacd5a	-1.9593918
139	0xbd860a43	-0.06544926
140	0xbc89ed1a	-0.016836692
141	0xbcd0edc0	-0.025503993
142	0x401ddd51	2.466633
143	0xbdd1f72e	-0.10252224

4.bias f4 [3]
0	0xbf7b576a	-0.9818026
1	0xbec947e9	-0.39312676
2	0xbf8c2315	-1.0948206
