mountain_car_model_36_48.pth (torch, 10930 bytes, 6 tensors)

0.weight f4 [36, 2]
-0.22015552 0.4100962 -1.7594153 -4.039934 -0.49289408 -1.6727707 -1.6260437 7.761928
-2.2007952 -3.3633363 -0.2136969 -0.13899273 -1.0999889 9.2007675 -0.29148576 0.026193738
0.27954417 0.42428023 -1.1128268 -3.2086298 0.1684554 12.129637 -0.14552271 0.52913636
-2.1754947 -5.2418027 -1.1667783 6.862905 0.25225753 -14.305883 -0.2439515 0.59401155
-0.7314092 -2.232803 -0.41144943 -2.205148 -0.842226 0.3109498 0.39407453 12.652498
0.5516058 9.670074 -0.30998385 0.6478997 -0.5109315 -0.36453474 0.44614047 0.41459173
-0.35357997 -0.7823196 0.33810526 2.8616734 0.2806381 0.095525086 0.47410542 -0.41634613
0.5600092 10.159865 -1.0840521 -3.5656211 0.3199467 0.28437036 -1.6908724 -10.721045
0.38818187 -0.089249134 -0.6876323 -7.482924 0.43867248 0.6789598 -0.49417672 -0.17838137
00000000: 7370 61be 21f8 d13e 8534 e1bf 2447 81c0
00000010: 9d5c fcbe 5a1d d6bf 3322 d0bf b761 f840
00000020: d4d9 0cc0 e740 57c0 5cd3 5abe 1c54 0ebe
00000030: 70cc 8cbf 5836 1341 9f3d 95be 4094 d63c
00000040: 6a20 8f3e 423b d93e 1c71 8ebf 315a 4dc0
00000050: 937f 2c3e fe12 4241 e803 15be 7b75 073f
00000060: 4e3b 0bc0 d9bc a7c0 fe58 95bf eb9c db40
00000070: e627 813e e6e4 64c1 6cce 79be 2411 183f
00000080: a23d 3bbf 3fe6 0ec0 80a9 d2be 2521 0dc0
00000090: 209c 57bf d034 9f3e 23c4 c93e a270 4a41
000000a0: 0a36 0d3f a0b8 1a41 34b6 9ebe c1dc 253f
000000b0: 68cc 02bf 4ca4 babe 866c e43e 5e45 d43e
000000c0: 6f08 b5be 1946 48bf 221c ad3e a825 3740
000000d0: ccaf 8f3e a8a2 c33d f2bd f23e 522b d5be
000000e0: c35c 0f3f cf8e 2241 38c2 8abf 2333 64c0
000000f0: 0ed0 a33e fe98 913e 826e d8bf 6689 2bc1
00000100: c6bf c63e 40c8 b6bd ac08 30bf 1d74 efc0
00000110: ae99 e03e 4fd0 2d3f bb04 fdbe 9ba9 36be

0.bias f4 [36]
0.6997586 1.1066816 1.1134865 -0.1703482 -0.49192554 -0.6148878 -0.5432557 -0.4423698
-0.6589911 1.3237615 -0.081315815 -0.70535874 -0.8829306 -1.4592175 0.11554744 -0.35534492
0.5459893 -0.6334084 0.43671444 -0.06783546 0.43399093 0.50659156 -0.6998485 -0.45869797
0.53907496 0.57868785 -0.5516027 -0.40716586 0.607487 1.1816221 -0.30831632 -1.3633078
-0.6735886 -0.11194195 -0.53249305 -0.6206931
00000000: 6123 333f bea7 8d3f ba86 8e3f c26f 2ebe
00000010: aadd fbbe 4969 1dbf ce12 0bbf 4b7e e2be
00000020: a4b3 28bf 0471 a93f e888 a6bd 6492 34bf
00000030: bd07 62bf a4c7 babf 23a4 ec3d c5ef b5be
00000040: f4c5 0b3f 0e27 22bf 0999 df3e 51ed 8abd
00000050: 0f34 de3e fcaf 013f 4529 33bf 76da eabe
00000060: d100 0a3f e324 143f d635 0dbf 0b78 d0be
00000070: 4584 1b3f 653f 973f a3db 9dbe df80 aebf
00000080: 4d70 2cbf d241 e5bd 7751 08bf bee5 1ebf

2.weight f4 [48, 36]
-1.251992 0.855482 0.37266394 0.69569206 -1.8419139 0.15122835 -5.2074833 -0.14054716
-0.04148072 0.7432239 -0.40962264 0.03952904 -2.4346588 -3.2948718 -3.7051895 0.07886483
0.32995686 -0.061890382 0.24051458 -1.6470844 -1.3542814 -1.4377342 -0.03545253 0.03562607
0.12556984 -1.0352639 0.11930849 -0.01713337 0.0589393 0.6697577 0.033730224 -7.5058284
0.15787436 -1.3717891 0.1582356 -0.012053609 -0.3961231 0.42036912 0.41365784 -0.0967015
-1.7498552 -0.12771863 -1.3546395 -0.14066803 -0.03380613 0.45720124 -1.7319186 -0.16073865
-2.4060535 -4.152975 -5.1794114 -0.09873758 0.2904947 1.0362661 0.22579867 -2.0098727
-0.709729 -0.024739193 -0.07571249 0.0627832 0.011358312 0.43001634 0.14656992 -0.067982
0.042798728 0.45461178 -0.15041016 -4.7708306 -0.019232407 -2.2246335 0.13327555 0.20704709
-0.03552385 -0.088348106 0.065433 -0.0071057165 0.02631859 0.058859825 -0.093450174 -0.035050914
-0.13734691 0.036747828 0.07880408 0.11403747 -0.1712816 0.00743331 -0.17045659 -0.091747366
-0.150671 0.0569575 -0.15278774 -0.05760094 -0.04661098 0.05406184 -0.12598668 -0.11441871
-0.15031447 0.08490138 -0.059910834 0.14058144 0.0067041125 -0.032441117 -0.0012406707 -0.08643496
0.020911053 -0.038057446 -0.0011710674 0.021265507 -0.35130766 0.44834876 0.5425701 -0.23006593
-1.0461292 0.16487314 -2.6385086 0.00471884 -0.14443499 0.53647757 -2.67873 -0.04731071
-1.1410812 -3.6104226 -4.307282 0.10633281 0.38206327 1.2605088 0.45427248 -2.8849437
-0.7690399 -0.15401539 -0.070637524 0.049020454 0.28393516 0.66474485 -0.053652644 0.0002668053
-0.2682151 0.322556 0.120496765 -2.083245 0.0022970885 -0.04300953 -0.08777883 0.32876584
0.10606734 -0.080482155 -0.13070926 -0.09339124 -0.19694644 0.07523233 -0.08004396 -0.111223385
-0.096016906 0.064064085 0.05656433 0.12792031 0.028697152 -0.05565995 -0.07832718 0.049238324
0.105248444 0.04531537 -0.11061418 -0.11004193 -0.15757817 0.004257352 -0.09353042 -0.14859597
0.11439104 -0.13996796 -0.018960252 0.047748923 -0.026415436 -0.14390852 -0.1347203 0.10109039
0.027139783 0.106517605 -0.05587344 0.049092576 -0.0381127 -0.0074118525 -0.101507366 0.056366816
0.05269432 -0.0034381002 -0.037483692 -0.102738306 0.11525746 -0.12407069 0.06827758 -0.056042254
-0.08041134 0.029940844 -0.086576164 0.038400814 0.032730147 -0.12374824 0.027749762 0.07098819
0.06597184 -0.020979777 -0.13663128 -0.025692344 0.05788462 -0.060812853 0.06326352 0.11099376
-0.08702527 0.0016436428 0.0689165 0.013062969 0.0139219165 0.020810902 -0.13102463 0.013098046
-0.0063602543 1.0170021 0.6696806 -0.18725592 0.096734695 -0.081079945 -3.4016213 -0.14332019
0.1662683 0.7952041 -2.4253745 0.06520711 0.28526923 -3.373312 -1.2850689 0.09821815
0.6011483 1.0733203 0.7662626 -2.7327724 -1.3729373 0.23929837 0.08052643 0.09085591
0.29879767 0.22522457 -0.05842708 0.13022609 -1.0229044 0.797636 0.029603645 -1.2793593
-0.056637928 1.4140718 -0.11641183 0.34706566 -0.32884336 0.16492021 0.25869995 0.5610193
00000000: 4641 a0bf de00 5b3f cfcd be3e e018 323f
00000010: d6c3 ebbf 9bdb 1a3e b4a3 a6c0 98eb 0fbe
00000020: b0e7 29bd ec43 3e3f 0fba d1be 34e9 213d
00000030: 73d1 1bc0 2edf 52c0 d321 6dc0 e283 a13d
00000040: 1bf0 a83e c580 7dbd 7449 763e a9d3 d2bf
00000050: 1859 adbf ad07 b8bf ac36 11bd a4ec 113d
00000060: 6195 003e 8783 84bf 0258 f43d 485b 8cbc
00000070: 566a 713d 3e75 2b3f b428 0a3d bf2f f0c0
00000080: d1a9 213e c996 afbf 8308 223e 807c 45bc
00000090: a6d0 cabe 9f3a d73e f6ca d33e 700b c6bd
000000a0: 41fb dfbf acc8 02be d464 adbf 480b 10be
000000b0: 4c78 0abd 4816 ea3e 82af ddbf ac98 24be
000000c0: c8fc 19c0 2ce5 84c0 bdbd a5c0 ee36 cabd
000000d0: b9bb 943e 5ea4 843f c437 673e c1a1 00c0
000000e0: cdb0 35bf d9a9 cabc 260f 9bbd 7a94 803d
000000f0: 3718 3a3c 1a2b dc3e 6d16 163e 263a 8bbd
00000100: b84d 2f3d e0c2 e83e 1f05 1abe a5aa 98c0
00000110: 488d 9dbc 6560 0ec0 6379 083e 2704 543e
00000120: 7581 11bd daef b4bd bd01 863d 12d7 e8bb
00000130: 159a d73c 0017 713d ce62 bfbd 8c91 0fbd
00000140: aba4 0cbe e484 163d 0964 a13d 7a8c e93d
00000150: 7264 2fbe 2093 f33b 2c8c 2ebe 0be6 bbbd
00000160: 8049 1abe 444c 693d 6474 1cbe f7ee 6bbd
00000170: 28eb 3ebd f36f 5d3d a702 01be 5b54 eabd
00000180: 09ec 19be c6e0 ad3d 1065 75bd 95f4 0f3e
00000190: 2cae db3b fae0 04bd 009e a2ba d004 b1bd
000001a0: a84d ab3c 20e2 1bbd 807e 99ba 0035 ae3c
000001b0: 99de b3be f88d e53e e0e5 0a3f 6796 6bbe
000001c0: 90e7 85bf 81d4 283e 53dd 28c0 80a0 9a3b
000001d0: c4e6 13be 9856 093f 5070 2bc0 e0c8 41bd
000001e0: f30e 92bf 2a11 67c0 41d5 89c0 04c5 d93d
000001f0: cc9d c33e 5a58 a13f 6796 e83e eba2 38c0
00000200: cddf 44bf 36b6 1dbe 68aa 90bd acc9 483d
00000210: f35f 913e b82c 2a3f e0c2 5bbd 00e2 8b39
00000220: 7d53 89be 0f26 a53e 02c7 f63d e353 05c0
00000230: c08a 163b c32a 30bd 63c5 b3bd ff53 a83e
00000240: d539 d93d d4d3 a4bd a6d8 05be e843 bfbd
00000250: 54ac 49be 6813 9a3d 16ee a3bd 16c9 e3bd
00000260: 83a4 c4bd 0834 833d 00b0 673d 8bfd 023e
00000270: 4a16 eb3c b0fb 63bd 006a a0bd 20ae 493d
00000280: 7f8c d73d 9c9c 393d b089 e2bd aa5d e1bd
00000290: 2c5c 21be 4281 8b3b e08c bfbd 8b29 18be
000002a0: d945 ea3d c353 0fbe 8852 9bbc 6094 433d
000002b0: 2f65 d8bc c15c 13be 1ef4 09be 7a08 cf3d
000002c0: 4054 de3c e725 da3d 8cdb 64bd 4c15 493d
000002d0: 101c 1cbd 20df f2bb 18e3 cfbd e4e0 663d
000002e0: 00d6 573d c051 61bb 8088 19bd 7668 d2bd
000002f0: 1a0c ec3d c618 febd 1ed5 8b3d 908c 65bd
00000300: b3ae a4bd 8046 f53c d84e b1bd 2c4a 1d3d
00000310: 0c10 063d b86f fdbd 7853 e33c 4262 913d
00000320: 3e1c 873d c8dd abbc 12e9 0bbe c078 d2bc
00000330: 6c18 6d3d e616 79bd 4e90 813d b250 e33d
00000340: 4e3a b2bd 806f d73a 1824 8d3d 1006 563c
00000350: c018 643c a07b aa3c 522b 06be 3099 563c
00000360: ae69 d0bb 202d 823f 3070 2b3f 04c0 3fbe
00000370: d71c c63d 3e0d a6bd 2ab4 59c0 87c2 12be
00000380: 3d42 2a3e 7f92 4b3f 5639 1bc0 4e8b 853d
00000390: cf0e 923e 58e4 57c0 237d a4bf 9926 c93d
000003a0: dbe4 193f 8f62 893f c929 443f bee5 2ec0
000003b0: 69bc afbf a20a 753e 0aeb a43d aa12 ba3d
000003c0: 02fc 983e 45a1 663e 3c51 6fbd fd59 053e
000003d0: 88ee 82bf df31 4c3f 5883 f23c 0cc2 a3bf
000003e0: 2cfd 67bd 4e00 b53f 5369 eebd 97b2 b13e
000003f0: 285e a8be d8e0 283e 5274 843e f69e 0f3f

2.bias f4 [48]
0.55619085 0.45258936 -0.04330877 0.5103226 -0.10720773 -0.06593245 0.3867554 0.48915657
-0.11626439 -0.13345626 0.40212488 0.048054457 0.58836174 -0.067952156 0.55828685 -0.09837135
0.045477316 -0.009232521 0.06504538 0.015054877 0.08958385 0.70493567 0.53624016 1.2086313
-0.09789698 0.093715295 0.57860607 0.12745817 -0.077853486 -0.088309705 0.06707354 0.007049558
0.6501941 0.8468777 -0.429959 -0.080950245 0.24574624 0.055866703 0.51772314 -0.12898694
-0.015635835 -0.15830745 -0.08198034 -0.085757576 0.05485193 -0.15002894 0.53556967 0.555075
00000000: 8662 0e3f cbb9 e73e 8964 31bd 80a4 023f
00000010: ba8f dbbd 9807 87bd ce04 c63e bb72 fa3e
00000020: 061c eebd c2a8 08be 50e3 cd3e c0d4 443d
00000030: e09e 163f 802a 8bbd e3eb 0e3f eb76 c9bd
00000040: 6c46 3a3d 0044 17bc 8336 853d bba8 763c
00000050: bd77 b73d aa76 343f 0947 093f 6eb4 9a3f
00000060: 367e c8bd ceed bf3d 871f 143f 6584 023e
00000070: a671 9fbd b8db b4bd da5d 893d fbff e63b
00000080: 1f73 263f facc 583f 9623 dcbe 3ec9 a5bd
00000090: e7a4 7b3e 7cd4 643d 8189 043f 2715 04be
000000a0: b916 80bc 591b 22be 4fe5 a7bd aba1 afbd
000000b0: 6bac 603d 30a1 19be 181b 093f 6519 0e3f

4.weight f4 [3, 48]
4.828275 -1.5436369 0.029595768 -1.193997 -0.09245989 -0.07373854 -1.0549616 -1.660851
0.13520277 -0.01090467 -2.7925472 -0.047685534 -1.0823944 -0.030699983 -2.9437416 0.07263571
0.11352613 0.04123266 3.2987185 -0.013149721 0.004569193 -1.0098318 -0.9606889 4.7452807
-0.13637197 0.0978497 -1.0032201 -0.12477402 0.11419606 -0.07766429 -1.2874484 0.11379545
-3.0304918 3.5393045 -3.6448126 0.060428947 -1.4589664 -0.08122149 -0.7665283 0.112879336
0.012410417 0.10028738 -2.8355255 -0.0299471 -0.01913534 0.003918186 -1.1017603 3.7107139
5.0978928 -2.311016 0.047162525 -1.1802182 0.06084141 0.060367316 -1.3335809 -2.1526
-0.11191156 0.00248155 -2.9699204 -0.046189904 -1.2451597 0.05631499 -2.5814717 0.13389847
0.08740808 -0.09208112 3.092288 -0.019961033 0.08490144 -0.84961957 -1.2476755 5.5803175
0.10635674 -0.032152243 -1.271348 0.06906362 0.13281417 -0.0060825795 -1.9562657 0.0628427
-2.6110044 3.5911973 -3.3711689 -0.12996605 -1.670444 -0.083313696 -1.1129704 0.0026580496
0.058034554 -0.07781038 -1.6103681 -0.015982382 0.044434182 0.12501386 -0.813141 3.1409817
6.2624526 -4.5913024 0.02404117 -1.8613663 0.050386652 -0.021447048 -1.6050414 -3.389993
0.038800687 0.140122 -3.0034533 -0.074929595 -1.6600157 -0.022566989 -2.1824489 0.06739742
-0.014884504 0.005653277 1.6564927 0.06529671 0.06605852 0.011289985 -1.7765279 8.681737
0.08992374 -0.027443323 -2.0708349 0.06336744 -0.0699429 0.13496283 -1.1428186 0.018852878
-1.3638616 3.88774 -4.3782916 0.0036999374 -4.095705 0.09178622 -2.0066037 -0.0973796
-0.10801097 -0.088846855 -0.37012538 -0.15024841 0.0077106957 0.004870668 -0.046658028 3.1437666
00000000: 3b81 9a40 e595 c5bf d372 f23c e5d4 98bf
00000010: 9c5b bdbd 3b04 97bd fb08 87bf c496 d4bf
00000020: 9872 0a3e 80a9 32bc 18b9 32c0 e851 43bd
00000030: e68b 8abf 887e fbbc 4366 3cc0 08c2 943d
00000040: 6380 e83d 94e3 283d 341e 5340 ed71 57bc
00000050: 2bb9 953b 2b42 81bf b5ef 75bf 57d9 9740
00000060: 18a5 0bbe 6c65 c83d 8469 80bf 8589 ffbd
00000070: a0df e93d 750e 9fbd 1ccb a4bf 970d e93d
00000080: 94f3 41c0 f783 6240 9c44 69c0 5884 773d
00000090: 69bf babf 7457 a6bd 333b 44bf 482d e73d
000000a0: 1055 4b3c 7863 cd3d 4079 35c0 9f53 f5bc
000000b0: b7c1 9cbc 2064 803b 7b06 8dbf 567c 6d40
000000c0: f021 a340 b0e7 13c0 7e2d 413d 6411 97bf
000000d0: d834 793d b843 773d c7b2 aabf 33c4 09c0
000000e0: e331 e5bd 80a1 223b 2d13 3ec0 a031 3dbd
000000f0: 6561 9fbf 8caa 663d d536 25c0 ae1c 093e
00000100: 0203 b33d 0795 bcbd 0ce8 4540 5285 a3bc
00000110: cee0 ad3d ab80 59bf d5b3 9fbf f691 b240
00000120: 90d1 d93d 12b2 03bd 88bb a2bf 3a71 8d3d
00000130: 7000 083e 6050 c7bb ea66 fabf acb3 803d
00000140: b21a 27c0 2dd6 6540 3bc1 57c0 d215 05be
00000150: 1cd1 d5bf 5fa0 aabd d075 8ebf ac32 2e3b
00000160: a4b5 6d3d 0c5b 9fbd 8b20 cebf 7ced 82bc
00000170: 9e00 363d a203 003e 022a 50bf d805 4940
00000180: 0366 c840 f3eb 92c0 fdf1 c43c 4041 eebf
00000190: 3c62 4e3d b8b1 afbc ff71 cdbf a5f5 58c0
000001a0: 78ed 1e3d 247c 0f3e 9438 40c0 b074 99bd
000001b0: 657b d4bf 68de b8bc 3ead 0bc0 a907 8a3d
000001c0: 22de 73bc 203f b93b f407 d43f 48ba 853d
000001d0: b049 873d a1f9 383c 4465 e3bf 65e8 0a41
000001e0: f029 b83d d2d0 e0bc 8f88 04c0 cac6 813d
000001f0: 393e 8fbd b233 0a3e e147 92bf 5a71 9a3c
00000200: 0493 aebf bbd0 7840 f71a 8cc0 a67a 723b
00000210: 0410 83c0 6afa bb3d 326c 00c0 f56e c7bd
00000220: db34 ddbd 57f5 b5bd 1381 bdbe b8da 19be
00000230: 01aa fc3b 209a 9f3b 7d1c 3fbd 7933 4940

4.bias f4 [3]
-0.844708 -0.13913095 -0.3438311
00000000: c93e 58bf 5878 0ebe a10a b0be
